…
2024-07-04 00:06:35.586540: Dataset size: 8063550
2024-07-04 00:06:35.586884: Dataset type: application/octet-stream
2024-07-04 00:06:35.587389: Dataset datapath: /var/folders/hb/fqnfqpt91n57lb9mkstlpr8w1dtynt/T/fileupload-0ufm3rvz/tmp_rrugsly/0.pickle
2024-07-04 00:06:35.587951: Dataset info: 41 items; Image size: 256x256 px
2024-07-04 00:06:49.977458: Model: "sequential_1"
_________________________________________________________________
 Layer (type)                Output Shape              Param #   
=================================================================
 conv2d_4 (Conv2D)           (None, 254, 254, 32)      896       
                                                                 
 batch_normalization_4 (Batc  (None, 254, 254, 32)     128       
 hNormalization)                                                 
                                                                 
 max_pooling2d_4 (MaxPooling  (None, 127, 127, 32)     0         
 2D)                                                             
                                                                 
 conv2d_5 (Conv2D)           (None, 125, 125, 64)      18496     
                                                                 
 batch_normalization_5 (Batc  (None, 125, 125, 64)     256       
 hNormalization)                                                 
                                                                 
 max_pooling2d_5 (MaxPooling  (None, 62, 62, 64)       0         
 2D)                                                             
                                                                 
 conv2d_6 (Conv2D)           (None, 60, 60, 128)       73856     
                                                                 
 batch_normalization_6 (Batc  (None, 60, 60, 128)      512       
 hNormalization)                                                 
                                                                 
 max_pooling2d_6 (MaxPooling  (None, 30, 30, 128)      0         
 2D)                                                             
                                                                 
 conv2d_7 (Conv2D)           (None, 28, 28, 256)       295168    
                                                                 
 batch_normalization_7 (Batc  (None, 28, 28, 256)      1024      
 hNormalization)                                                 
                                                                 
 max_pooling2d_7 (MaxPooling  (None, 14, 14, 256)      0         
 2D)                                                             
                                                                 
 flatten_1 (Flatten)         (None, 50176)             0         
                                                                 
 dense_2 (Dense)             (None, 256)               12845312  
                                                                 
 dropout_1 (Dropout)         (None, 256)               0         
                                                                 
 dense_3 (Dense)             (None, 5)                 1285      
                                                                 
=================================================================
Total params: 13,236,933
Trainable params: 13,235,973
Non-trainable params: 960
_________________________________________________________________

2024-07-04 00:06:49.985227: Model loaded.
2024-07-04 00:06:59.192370: Classes loaded: ['Dyskeratocytes', 'Koilocytes', 'Metaplastic Cells', 'Parabasal Cells', 'Superficial-Intermediate Cells']
…
